hw1/model_w.npy (npy, 2000 bytes, 1 tensors)

array f8 [234, 1]
0	0xbfd00831f1b88512	-0.2505001888803956
1	0x400b4807f806f043	3.4101714493863553
2	0x4002add51f16f11b	2.3348791531444824
3	0xc02142687e85f1fa	-8.629703477717147
4	0x4014c16ea18d491a	5.1888985865100725
5	0x3fff20ea2f7d83e3	1.9455358367051694
6	0x3feb9e3f70aed578	0.8630673600043073
7	0xbfff1dfc1a179128	-1.9448205012532274
8	0xc00403477dd71a9d	-2.5016012030858534
9	0x3fce0d497efa0955	0.23478048992189807
10	0x3fd7342f755a31ce	0.36256014309108486
11	0xbfe178142c76e848	-0.5459080570647155
12	0x3fdf71404812b090	0.4912872985685306
13	0x3fa51135b79cbd75	0.04114692560539882
14	0x3fe26647790aad40	0.5749852527709791
15	0xbffc6d12f83d005b	-1.7766294190223764
16	0x3ff0f6f9ca96c517	1.060296813357416
17	0xbfe9fb768d0e10a1	-0.81194617795747
18	0xbfb9421478505a0b	-0.09866455018377722
19	0x3fc60e26e931000b	0.17230688463496366
20	0xbfa5c9ba9976d650	-0.042554694398330484
21	0xbfdcb71dd1e9fd9e	-0.4486765432302152
22	0xbfe1c8fea0506b55	-0.5557854777465346
23	0x3fe8c18a4e38c5ca	0.7736255195397288
24	0x3fe208d668b06d43	0.5635788006506249
25	0xbfdef6f4ea7be7da	-0.48382304095104944
26	0x40008826cb259b20	2.0664802428103854
27	0xbfda7c343942cff8	-0.41383081046956205
28	0x3fcdda1538ba7486	0.23321786184252263
29	0xbf956b66f452ee00	-0.020917519247388938
30	0x3fe2523e68f5683e	0.5725395250294765
31	0xbfd2772c9c138ebf	-0.28852381936870225
32	0x3fe330890ad72294	0.599674721882439
33	0xbfe841d103633257	-0.7580342355882504
34	0xbff4f5974a020315	-1.3099587336475385
35	0x3fcae14aae256c54	0.21000035765868807
36	0x400eecff97b01b77	3.865721879064434
37	0xbf9234aab1fa738c	-0.01777903281491748
38	0xbfdaae6715671eb4	-0.41689469423406966
39	0xc0016cc73acd92d0	-2.17811437549458
40	0x40032be0cadddef9	2.396424851318326
41	0x40045f96afa68753	2.5466741297431468
42	0x3fd44d89d247f3a6	0.31723256621608653
43	0xbfc0ac070f770da3	-0.1302498651040028
44	0xbff88835a16b3a6f	-1.533254271070884
45	0x40169c19529393d1	5.652440347916994
46	0x3fd1d75290ceb6e2	0.27876724377970963
47	0xbffce09027e1499b	-1.804824977666249
48	0xbffc77eed4afaabf	-1.779280501180139
49	0x4008ce12d387ffd8	3.1006218458059998
50	0x400606cff103c739	2.7533263043668765
51	0x3fbdb7daf4750f21	0.11608665912814022
52	0x3fdb6d53c2fbebe0	0.42854780236637957
53	0xbfe6c641f85f20cf	-0.7117013789184287
54	0xc0214f62e16dc8c4	-8.655051273967167
55	0x3f99f71b7e84745a	0.02535670242024355
56	0x4001bdbffb79861f	2.2176513334714083
57	0x400db3f24f220abe	3.7128645117057593
58	0xc0100d63ad957931	-4.013075554130681
59	0xc018b4bf72666ebf	-6.176511561872473
60	0xbfe40bb7b1d209b7	-0.6264303658538698
61	0x3fa34495502ea136	0.03763262370859126
62	0x40027d023d93a618	2.311039429729828
63	0xbff0f2ae4f925472	-1.059248267008368
64	0x3fe0958c583b9edd	0.5182553981112182
65	0xbfe1e895b034f41d	-0.5596416894474064
66	0x3ff03d29cf8da241	1.0149324519681076
67	0x3fd0a358012a3754	0.2599697123886149
68	0xbffdb5908192da64	-1.8568272649260047
69	0x3ff35d54a17393e9	1.2102857882211941
70	0xbff9d98c562bb926	-1.6156123510405194
71	0x40052079275432fa	2.6408560822077307
72	0xbfd2aa6461e77b33	-0.29164990960082376
73	0xbfc7c512948ff7c8	-0.1857016778375835
74	0xc0010aeb80ee4e22	-2.1303320000386217
75	0x3ffff6718deda305	1.9976668876717565
76	0xbff5bbb0ab9bae25	-1.3583227828447744
77	0xc002bcf05ec8c14d	-2.342255344869193
78	0x400a259a64b48c31	3.26836088825214
79	0x4006c5659bba08dd	2.8463852087162267
80	0xc005530f8cd56b8f	-2.6655570032721196
81	0x3fcfd133d62e38c3	0.2485718532374844
82	0x3fee30073347e0ae	0.9433628083779888
83	0xbfd060dcf72649b9	-0.25591205726336913
84	0x3fcd86cdc7951d80	0.23067638631094312
85	0x3ffddbbe17cd9efe	1.8661480836689743
86	0x4000df76199a071d	2.1091119766359854
87	0xc009a2b89e4430d4	-3.2044536938247834
88	0x40080e890509b0e8	3.0070972817976447
89	0x4024e8e248a01048	10.45485140756513
90	0xbfb6c7c8a47359c0	-0.08898595824152888
91	0xbf85d70f304fe0f0	-0.010664099370828656
92	0xbfc114a9d56a496b	-0.13344309731162282
93	0x3fa324f603dc4fcd	0.03739136502386451
94	0xbfb536b56c678e2d	-0.08286603828997192
95	0xbf9fbc25cd225ed7	-0.0309911638692871
96	0xbfb5ae606e4c0ec6	-0.08469202702331832
97	0xbfbc6f4f0c04b7b4	-0.1110734371511331
98	0xbfb74e9eacffe0b1	-0.09104339336033963
99	0xbfce686fddd27b51	-0.23756216365014862
100	0xbfee4293f6c92a4d	-0.9456271953616323
101	0x3fd745293dc4c80e	0.363596258469557
102	0x3ff169665f6f9cc3	1.0882323959320253
103	0xbff02435785b97cb	-1.008840055606458
104	0xbfce1afb53593d4a	-0.23519841737513963
105	0x3ff54f02a3eff0a2	1.3317896274375376
106	0xc008189688ebff59	-3.012005872442313
107	0x3ffe469aa0b3655a	1.8922373082517283
108	0x3fdaaa47b7b9cd0b	0.4166430753895873
109	0xbf8cb357eb9074d7	-0.01401394546160832
110	0xbfd016198ba78acd	-0.25134886396533035
111	0xbfb6e367e3ce00d5	-0.08940743743551434
112	0x3fdd2284c2e867cb	0.45523184808700695
113	0xbfe3a327f39d2223	-0.6136665113527368
114	0xbfb77fda483e6c4a	-0.09179462684407827
115	0xbfc40467ae606e67	-0.15638443006979516
116	0x3fe9cb960052ea27	0.806101799614514
117	0x3fd7893ba8f1bcba	0.3677510404440444
118	0xbfe34b90c1598c2d	-0.6029742981303393
119	0xbfd1e9c1ec61512a	-0.27989242633818157
120	0xbfdccee766c35b74	-0.45012841258488057
121	0xbfaade2f93afcc2f	-0.05247639348808552
122	0xbfeb41c72301a2b9	-0.8517795261114635
123	0x3ff0b01f1cf31565	1.0429984217492685
124	0x4002b774360828a8	2.339577123760211
125	0xbfe8f33b7e8af0db	-0.7796914550340505
126	0xbfc142370323d0b9	-0.13483321812930685
127	0x4002a785fb8b2d0c	2.3317985202644476
128	0xbff11ad9deb26290	-1.06905543318695
129	0x3ff1f826bb87c164	1.1230838132288108
130	0x3fc61d0a1d630a08	0.17276121554284907
131	0x3ff6bfbc7aeab36a	1.4218106080472475
132	0x3ff552e977ff4550	1.3327421843899465
133	0x3ff70848c4530638	1.4395225209158422
134	0x3ff3af6bcb1c6068	1.2303274091737197
135	0xbfe27e47b9e7e48c	-0.5779150610898269
136	0xc001316dfa957fa2	-2.1491355492471067
137	0xbf434537095c70af	-0.0005880850537525374
138	0xbfd9bc0f1d9a6dd3	-0.4021032132238506
139	0xbfe766aa15dbfb7e	-0.7312822749080252
140	0xbff390f34f11d1ba	-1.2228882874161244
141	0xbff1c2d092339886	-1.1100621901510137
142	0xbfca44889f8e2fce	-0.20521648207465976
143	0x400160aaeb89c738	2.1722010041638917
144	0xbfcb08ca6d9bccd0	-0.2112057719419682
145	0x3ff0f1cf2f59cbde	1.059035477603849
146	0xbfdd8df9e07baef2	-0.4617905323236605
147	0xbfe175daffd43d69	-0.5456366535817497
148	0xbf97974028422a00	-0.023037912804776184
149	0x3fd33fa7cb13f5c7	0.3007602198775569
150	0xbfd884265952e2d7	-0.38306578372025285
151	0xbfd8400ea8f1c638	-0.3789097452018697
152	0x3fd08f51478499ce	0.2587474058549589
153	0x3fe206bcd564240b	0.5633224647327791
154	0xbfe841de73dd74f3	-0.7580406439771238
155	0xbfb570485f3db878	-0.08374454808446952
156	0xbfa9f00e58dd55fd	-0.05065960726521366
157	0x3fd51ca4f8e98db4	0.32987331683963395
158	0x3f8cdbb1140dc3ab	0.014090903686993025
159	0xbf7f1fa3d65706f8	-0.007598533620184027
160	0x3fdb29301b23a40b	0.42438891077341684
161	0xbfec41cdc67670bb	-0.8830326915954382
162	0x3fd8a9e3ba456aab	0.3853692359022413
163	0xc014f956a023e3e2	-5.2434945127397175
164	0x3fd399d61be1fa29	0.30626442644998747
165	0x401db50058d7f101	7.42675913637163
166	0xc012d2f5c68da07e	-4.706015684503766
167	0xbff75083bda81d05	-1.457156887861687
168	0xbff928f7eb529ca0	-1.5725020592015326
169	0x40034c63e60f9a5b	2.4122999166022914
170	0x3ff7693754d2f3b8	1.4631875337065434
171	0x3fe01abd9635d773	0.503264230136422
172	0xbfb668d01356f348	-0.08753681633147636
173	0x3fe6b35f99d792fb	0.7093961720207455
174	0xbff03e59169e1b8f	-1.0152216800213159
175	0x3fa416d5cccab869	0.039236718415268275
176	0x3fc193d05716e2b2	0.1373234200707621
177	0xbfe44c2e4e4eabdd	-0.6342994241180083
178	0x3fe473bca0da0a07	0.6391280309329098
179	0xbf9754f07d518150	-0.022784955643488758
180	0xbfc69dd1cf194850	-0.17669127094501613
181	0x3f86f1577a4a33e6	0.011202510280122934
182	0x400026f6269d0004	2.0190241829550377
183	0xc002eea158273141	-2.3665186774216243
184	0x3ffa3e59bb7671dc	1.6402222941170441
185	0x3ffb30ae7c36823a	1.6993851520602576
186	0xc00d034e05db851b	-3.6266136605851336
187	0xc0050a0b45b364af	-2.629904312646054
188	0x4013d8f0285fbf7e	4.961853628963466
189	0x3fca1d4e2c5d010c	0.20401932874848006
190	0xbff0253f880e1d31	-1.0090937914518003
191	0x3ff488d2d264b158	1.2834041803826803
192	0xbffb5ca5ef66a2bd	-1.7101191856001343
193	0xbfc34a6350e8822f	-0.15070764017674906
194	0x3ff86889e5c768e3	1.5255221343746193
195	0xc002aec87c20ad4f	-2.335343332049582
196	0xbffff3e6375616c2	-1.9970457231114982
197	0x40109bfddddb9ab1	4.1523356118474775
198	0x3fbd028a7d167c6b	0.11332002214338537
199	0xc0061b234e664108	-2.763250935073419
200	0x3ff3aa1dcb175f9e	1.2290323193792356
201	0xbff0ec6c8d86e42b	-1.0577207115550304
202	0xbfbdc617396fdba1	-0.11630387451428571
203	0xbff57a0387782c33	-1.3422885219358818
204	0xbff3981c131fecbc	-1.2246361491259412
205	0xbffb84b0e4ef5583	-1.719895262028644
206	0xbff393bd52e910a3	-1.2235692251861472
207	0x3fe6515402adb92f	0.6974277546230833
208	0x40028e2c2c5849fb	2.3194201912349377
209	0xbfbe9297f4638255	-0.11942434040566614
210	0x3fdad56850fbc516	0.41927535923521597
211	0x3fe8ffa921548d1d	0.7812085772497174
212	0x3fef8c81056692e6	0.9859013658029567
213	0x3ff153042a3832b7	1.0827676438522482
214	0x3fc8d1ff6a96719e	0.1939086218307126
215	0xc00145bb17c982be	-2.1590482576724233
216	0x3fc0b23cecfa3a2c	0.13043939181484754
217	0xbfd141d4fde11b18	-0.26964306633856117
218	0x3fdb5de83be06e05	0.4276066384061042
219	0x3fd7ba9f4c105a2a	0.3707655184565818
220	0xbfb97922bbe618f2	-0.09950463378308763
221	0xbfc768eef01c8f45	-0.18288981174657173
222	0xbfa5768a8b49f675	-0.04192002249054109
223	0x3fd2cf432eb5504a	0.2939002948890034
224	0xbfa40a6ffb043188	-0.03914213122525029
225	0xbfc3c4909bd0c792	-0.15443618400746267
226	0x3fbfc961d77ed5e9	0.12416659842605039
227	0x3f9d8199a8ef87a8	0.028814698158278113
228	0x3fc2eb1fa86e7a3d	0.14780040477940473
229	0xbfd3b0b54cca21f6	-0.3076604127786874
230	0xbfb8cf93dd39cb59	-0.09691738272685536
231	0x3fd5837facadd591	0.336151045448184
232	0xbfe5372afbb75ff2	-0.6629843632063042
233	0x3fe91fb1a5e91012	0.7851188888967064
