hw1/model_w.npy (npy, 2072 bytes, 1 tensors)

array f8 [243, 1]
00000000: 916b 3412 2687 dd3f 3e48 44d4 0f84 f33f
00000010: 9355 62ed 0155 0540 f571 904f e931 1bc0
00000020: 64af d554 7b74 0d40 349e 9fd0 6aeb 0440
00000030: 0fb2 40e3 43c4 0640 a279 d331 38b7 09c0
00000040: 5c34 a68c 087f 0bc0 36c6 da7c 08e8 ad3f
00000050: ab52 d05c c92e c43f 9f72 f5e2 ddd1 e2bf
00000060: 1b37 ac58 8708 e23f cbf2 76fb d438 d83f
00000070: 86c6 1d1e 1395 a0bf f9cd 9c07 d293 f6bf
00000080: 3b8b ac0a c83f eb3f 5530 f400 7e39 d4bf
00000090: 567b b548 15e9 cd3f a4db 44d0 5b46 c43f
000000a0: 0386 19c8 1f7e d9bf 4693 93e3 a7d7 e3bf
000000b0: 72da 8b80 e42c dcbf f5f7 cfcf d21c eb3f
000000c0: 9ba9 c5b8 8526 d83f 2106 8ced 2c30 e9bf
000000d0: c158 ca13 d8cd 0140 af14 27a3 d2f5 dabf
000000e0: 6e93 aa6f 80d6 833f dfe4 f09b 3b36 b5bf
000000f0: 202f 7205 285c de3f 40fb ad8f c152 aabf
00000100: f367 d0dd f7a2 d03f 2970 909b 96ba e5bf
00000110: c5d6 db2b 14ac f2bf a28d 7b3d 512f e43f
00000120: 958e 46d8 b5af 0d40 0f84 d3fd 764f e3bf
00000130: 546a f498 280d d63f 768d 20ee 6c44 f5bf
00000140: d360 4893 da90 0140 4dc4 5651 96cd fb3f
00000150: aac3 573b 224e e2bf 2bb3 d8d5 6a40 f13f
00000160: 9630 dcb1 4f52 e8bf 2858 2a97 102f 1540
00000170: bec5 9b33 2b8c debf 243b 5a13 c4d6 ecbf
00000180: 5105 4a19 0b26 a93f c7a5 780a 3876 0240
00000190: 3d3e aba4 991c f73f 267d 46cd b082 f0bf
000001a0: 56a3 1216 515d 0340 4579 adfa 1dff d03f
000001b0: 8288 352c 5c67 20c0 2d91 401a d470 ec3f
000001c0: cbb5 69e6 4348 f23f ed80 ae59 c972 fb3f
000001d0: 6eaf c3b0 e92d 0bc0 fba7 2297 0b60 11c0
000001e0: 9000 9b3b e57c f43f 59f7 d376 962e 02c0
000001f0: 0023 a35a 3747 d53f fa7f 7610 5185 efbf
00000200: 99cd 55de cd61 e53f 5e74 9f43 c55a e8bf
00000210: b903 3cc6 837e f43f bb61 215b 05fd c0bf
00000220: 50ed dad7 3d2d 01c0 b6e6 5846 dfa6 f43f
00000230: b09a 224c ab0e f4bf 28ff ac5b 6b2c 0240
00000240: 5abd 27f8 5423 dbbf 002c 3596 804a c0bf
00000250: 82ff fafa d870 fbbf dc36 4fa9 d72f f73f
00000260: 1692 5c1e cffe f9bf 8312 6d1e 633a ffbf
00000270: a148 84fa c953 0840 b2af 64d6 9cfe 0440
00000280: ecf1 3e11 76a0 02c0 3f7a c9e7 f4e8 c93f
00000290: dc02 3c09 2604 ee3f c541 0aef 2ffd c7bf
000002a0: 3015 99cd 8501 db3f 7292 4512 9e42 fa3f
000002b0: eb05 2e7c 8242 0040 3d04 e7c3 6dd1 08c0
000002c0: 47bb 980e 9348 0940 fb03 3222 c0e8 2440
000002d0: efc6 f247 d950 d3bf c07f f069 f771 bfbf
000002e0: b098 2954 4059 d4bf 3571 9116 bf29 a93f
000002f0: 5169 2e10 c331 abbf 7a6c d094 1a24 c2bf
00000300: 2950 2357 cc70 d2bf a090 f0ec f955 d2bf
00000310: fe67 1917 a3a6 d0bf bd46 1f94 60df d9bf
00000320: c485 151b 8096 d8bf 35f3 077c 7a5d cd3f
00000330: 05bc d65c bb90 f03f 96d6 00f2 a22a e8bf
00000340: 4b12 6633 9f9e e2bf 9ceb 243e 6d71 ea3f
00000350: 9eeb 85f7 f5c8 04c0 e81b 9ee2 641d 0140
00000360: 30fe 2792 130a d53f 3571 ff46 2052 ab3f
00000370: dc73 f935 972e d7bf aae5 e520 50d6 9a3f
00000380: 2b4a a582 8caa d93f a78c 5236 ee72 dfbf
00000390: 1c16 8e28 3760 bdbf ef6a 818d 3fd3 cabf
000003a0: dc06 a554 79fc ea3f 86df 8406 841c d63f
000003b0: 5940 e121 598a b6bf 5b27 6d49 1416 d3bf
000003c0: dc2b 170c 42ce e6bf 9fe8 df68 ea71 d0bf
000003d0: 9a1c c20d 26ae cfbf 7d88 1dc8 55a3 f13f
000003e0: ee9e 66b6 791b 0040 4fc8 84f9 91ed f6bf
000003f0: fb98 45f7 958d dc3f 9f08 91ee 61dd fd3f
00000400: 1a30 83b2 8098 dbbf 938c 48a5 6e79 f23f
00000410: 7f04 08b9 5954 c13f 1490 f5a2 6f3c fc3f
00000420: 3ee6 7de6 cc54 f23f b0b8 11c6 59a3 f93f
00000430: acbf 7b88 e9c8 f43f 0dfc 654e 9d04 eabf
00000440: b60e fac8 0ccb 01c0 c2c4 91e3 8066 a5bf
00000450: 55b6 1b8e a9b7 e2bf bc91 a168 d8c0 f3bf
00000460: 1130 6f81 2d4c f7bf eef5 e68e ae8c eebf
00000470: 6dab 67b2 f279 dcbf 6396 87bc 0a66 0040
00000480: 1ce3 73c8 1f60 c0bf 0da5 abbd 3b64 ec3f
00000490: 8871 a4a1 ddcc d7bf 27d0 8362 43a7 b9bf
000004a0: e2ca 71b7 7a19 b2bf 4d1f ed19 c70b dd3f
000004b0: 5c1d 25d9 a1c0 dabf 0997 4453 fcf8 e3bf
000004c0: a402 2377 c899 d73f a272 76b6 9b1f cd3f
000004d0: 3d09 b052 1c82 d4bf 5ef3 e03a 2b72 d3bf
000004e0: 1bbc 8d20 df3a 97bf c9b4 a433 58be d03f
000004f0: ecfd 94ef 98c6 b6bf eba2 38d5 8a2a c23f
00000500: 8259 ef65 fbc8 e33f 9b85 769b 577b f0bf
00000510: d645 fa62 7f15 abbf b824 6212 f9b5 08c0
00000520: 938a 38c7 233c e4bf c9be cf30 67bd 1840
00000530: 990e 4d5f f587 08c0 ad78 5e84 a27f 01c0
00000540: 3744 5f44 1683 0dc0 202f 208f ae40 0c40
00000550: 3e57 3ac8 b083 0340 c7db d3fe 4c5c de3f
00000560: a0d2 6f9d 6ade c6bf 1d4d d6bf 1f13 e63f
00000570: f44c 7ab4 61f2 f0bf f263 ba48 11d9 b03f
00000580: 897c 03bf eb55 e43f 46a9 98d0 b9e7 e8bf
00000590: 09db 3c42 bed3 dc3f d342 d322 1a8c d03f
000005a0: 0536 ebff d6fa 89bf e35b 36d7 612d a33f
000005b0: 6b50 c5b9 9899 f93f 7080 be76 830a febf
000005c0: 5855 c5aa b240 0140 ad46 c070 3f22 f23f
000005d0: af3c 8d68 03b9 09c0 c7ce d8a1 094b 03c0
000005e0: 7751 f596 76ec 1240 a776 d0fe 8d0b c63f
000005f0: 5c8e c05b 7cd7 e4bf 28d9 def9 85e5 f03f
00000600: 3c71 6d7d 6723 fdbf ccb9 9809 d23b cebf
00000610: 3bf4 3aae ac80 f73f 20aa da70 783a fcbf
00000620: 5494 75fb cfee 03c0 d6a1 029d 3678 0f40
00000630: fcb2 c846 8af3 ca3f 47a1 3340 2309 c33f
00000640: 1691 dd92 4fe0 cd3f 9272 e166 ee4e af3f
00000650: 0469 ca4d d7f7 bf3f 6b2c 0312 8510 c33f
00000660: 3156 77e9 dc90 d13f 10d6 eb48 5b1e cd3f
00000670: 8b65 dd71 5e1f d23f e8e5 b3a2 8714 e2bf
00000680: fffe ac11 2993 01c0 8cba 20d4 5d63 e03f
00000690: 4302 8b2c f7d0 f1bf 6e70 c5ef 4793 a3bf
000006a0: 6e30 907a db4d fbbf 26fa 1830 f682 f1bf
000006b0: c963 c1bc 790b fdbf 31ac 1275 04d8 f5bf
000006c0: 3d91 7fed 9ce1 ec3f 8a5c 340c 7e2f 0340
000006d0: 5803 5c39 7adb a7bf 7efc dcb6 e5e1 e13f
000006e0: e2ba 30a5 7f36 f43f 9c64 abe9 17c8 f33f
000006f0: 39a0 8786 7aac ef3f 4db9 bc4a da3c da3f
00000700: e96c 940f 14e7 febf e267 43cc a535 b53f
00000710: 314e 4bad b19c c9bf 3d08 e997 3411 c43f
00000720: 17fc 8b2b 2825 c33f 5afe 47f6 3f1c b6bf
00000730: 4011 2f6b 9eac d0bf b8d1 019e 042a 6abf
00000740: 387a 3c89 f1ed dd3f f402 a204 22a2 b1bf
00000750: e646 92be 472d b33f f22c 11f2 f88d c4bf
00000760: 5544 5dab 9c74 d03f e91d 7cd1 6526 b83f
00000770: 041f 459a c335 d0bf 1f37 63e6 6b29 b9bf
00000780: 0a12 f1f0 302d bc3f 53db 5399 3a90 e7bf
00000790: b53c c4d5 9cb7 ed3f
0.4613738229542657 1.219741658369926 2.6665075822481383 -6.798741572562439 3.6818758609496616 2.614949827071337 2.845832610523082 -3.214462651506623
-3.4370280254575345 0.058410897484816024 0.15767781288072533 -0.588118499068134 0.5635411006821615 0.37846874768346755 -0.03238734953528159 -1.4110889718402844
0.851535817001014 -0.31600904553557047 0.2336756329559317 0.1583971754968988 -0.39832300702082096 -0.6200751728871203 -0.44024002602910806 0.8472684916339391
0.3773512176909663 -0.7871307983006696 2.2255097910047827 -0.4212538331306161 0.009686473281655696 -0.08285877759125836 0.4743747761901762 -0.05141262892629195
0.2599467912820039 -0.6790268934596543 -1.1670114243728886 0.6307760430176368 3.710796060231426 -0.6034502942603711 0.34455313622462325 -1.3292054464189653
2.1957293993437843 1.7376921822835982 -0.5720378073730121 1.0782268861177708 -0.760047767050781 5.295961725196356 -0.4773052219380495 -0.9012165430047827
0.04911837276177756 2.30772407704055 1.4444824631099344 -1.0319068926399466 2.420564815944469 0.2655711124442813 -8.201875096831149 0.8887730133761004
1.1426428795342527 1.715524053877796 -3.3974183854788214 -4.343794213762517 1.2804920509661635 -2.2727479251324607 0.3324716935281202 -0.9850240060368372
0.6681889860614546 -0.7610803910025756 1.2808873885662548 -0.13272158574797097 -2.1470906127630442 1.2907402751865624 -1.2535813306837262 2.271689144341412
-0.42403148874196506 -0.12727362951622467 -1.715050678627421 1.4491802800798075 -1.6247092424392853 -1.9517546833532442 3.040912587320307 2.624322581241324
-2.328350195630483 0.20242177312589324 0.9380064182624568 -0.18741416141393877 0.42196793630531015 1.6412640298596242 2.0324754430337086 -3.1022601418376596
3.160436739002225 10.454590862851537 -0.3018096163387857 -0.12283274017727219 -0.3179474660777357 0.04914662504663384 -0.05311402866864746 -0.1417268015510194
-0.2881346560436691 -0.28649757517474406 -0.26017071967874006 -0.4042588659768674 -0.384185816239633 0.22941523605541084 1.035334932948673 -0.7552046515108539
-0.5818630222207245 0.8263460363153743 -2.5981253946060425 2.139352579546074 0.3287400176340922 0.053360947291113105 -0.362218668660544 0.02620816422265696
0.4010344768368294 -0.49138980202605825 -0.11474938144791519 -0.20957178506326765 0.8433195737090631 0.3454904616987665 -0.08804852559228617 -0.29822261019272894
-0.7126779781477768 -0.25695286027588254 -0.24750209495343684 1.1023767296797182 2.013415741926898 -1.4330005404304023 0.4461417116894066 1.8665484732633002
-0.43118302758080207 1.1546465355284325 0.13538667235119203 1.7647549024195586 1.1457032207093927 1.60238053675452 1.299050839555984 -0.813063290712195
-2.224145479327343 -0.04179766443201906 -0.5849197173644806 -1.2345813834336772 -1.4560980850246816 -0.9546730795915985 -0.4449431173549588 2.0498251656415944
-0.12793347633103103 0.887235517931147 -0.37187901292215786 -0.10020848422192384 -0.07070128420472657 0.45384385616170136 -0.4180073376232565 -0.6241437555624724
0.3687611735768235 0.22752710732756493 -0.3204413230415815 -0.3038433146464764 -0.022685514795224387 0.2616177086191099 -0.08896785592241202 0.1419232884520832
0.6182839384953669 -1.0301128456852442 -0.05289838870261192 -3.088853973026371 -0.632341279128314 6.184963953666462 -3.0663859792128503 -2.1873216954546337
-3.6890073148320215 3.531582945031815 2.439302028923435 0.4743835915136824 -0.1786626118406689 0.6898344752138744 -1.059175209990653 0.06581218743885112
0.6354883890852686 -0.7782868456027152 0.4504237791874606 0.25855115319158734 -0.01268547028066803 0.03745561363319163 1.5999991661710975 -1.8775667799418692
2.156590780398499 1.1333612827624322 -3.2153385322668195 -2.4116394657411067 4.730921133730923 0.1722276205263615 -0.6513044158968557 1.0560359726492354
-1.8211436175834725 -0.2362005755289388 1.4689146810408278 -1.7642750175824702 -2.491607632184733 3.933697916643932 0.21055725532769276 0.14871636042449607
0.23340792342345001 0.06114907270305027 0.12487550400911479 0.148941644473186 0.27446673201970656 0.22748890934569532 0.2831646072350728 -0.5650060823238023
-2.196855676738664 0.5121297019121172 -1.1135169734917703 -0.038233039874030136 -1.706508139383938 -1.0944730643092355 -1.815301644636053 -1.365238625827953
0.9025406492842546 2.398189635608621 -0.04659635496319109 0.5588253566310326 1.2633053257701978 1.2363509299960134 0.9898045184645589 0.40996415422968796
-1.9314156159005569 0.08284984814545696 -0.20009442292813298 0.1567750684499191 0.14957143904027312 -0.08636855852818695 -0.26053581683324367 -0.0031938638858781364
0.46764791872002176 -0.06888020146471857 0.07490967180845196 -0.1605826551407073 0.2571174310188032 0.09433590282798544 -0.2532814985793126 -0.09828829168983731
0.1100645626293685 -0.7363560671500217 0.9286636519554096
